models/accident_detection_model.pth (torch, 377915 bytes, 8 tensors)

conv1.weight f4 [32, 3, 3, 3]
0.18141252 -0.052857697 -0.04787936 -0.022935864 0.17492814 0.004891762 -0.22768053 0.12229161
-0.041761704 -0.08633234 -0.23672827 -0.1263449 -0.15003814 0.08619487 -0.22433831 0.078621335
-0.23735702 0.077330634 0.19947553 0.022348404 -0.021282837 -0.042225808 0.036237665 -0.09748175
0.040605266 0.20261873 0.004786787 -0.0034161962 0.20495866 0.029565293 -0.23210144 -0.0926345
-0.19569412 0.2144261 -0.05943116 0.093104236 -0.09398964 -0.028448308 0.1555823 -0.089370795
-0.19148152 0.11058423 -0.07814077 0.037425883 0.16163683 0.07542245 0.016475918 -0.10588793
0.017251981 0.10771284 -0.11732645 0.13316616 -0.10408428 -0.061681848 -0.115836464 -0.08512244
0.11476275 -0.03295021 -0.135945 -0.101423234 -0.032908835 -0.005695167 -0.0672069 -0.18567133
0.13032815 0.05436696 0.07606108 0.08930941 -0.15673333 0.090326995 -0.14116842 0.21164763
-0.1741032 0.1596858 0.09340657 -0.15204416 -0.033708215 0.09646463 -0.20629387 -0.021714479
0.20065744 -0.032279372 -0.16589917 0.13299835 0.011568504 -0.17888094 -0.0025031383 -0.15950929
0.18218242 0.1933263 0.16002715 0.16371512 -0.038051926 0.18265034 0.089410305 0.012344871
0.06607913 0.14351504 -0.12108857 -0.14867163 0.063414246 0.06507431 -0.043154158 0.07209344
-0.16826965 -0.08016369 -0.15501943 0.08095121 -0.17656922 0.03919615 0.02480077 0.09959786
0.143366 0.10623661 -0.057520043 -0.004690422 0.065403484 -0.075978495 0.024678314 -0.084555306
-0.04638833 0.0545755 0.23595946 0.041355476 -0.2132983 -0.19887254 -0.034582067 -0.106761865
0.08542377 0.024185922 -0.15159589 0.12106308 -0.06792367 -0.17038147 -0.17822951 -0.0025420694
0.16278519 -0.16631953 0.021977648 0.02445687 -0.17528729 -0.09900987 -0.08921453 0.03649561
0.23452044 0.052481383 0.069427766 0.16210292 -0.10688398 -0.03122702 0.0715424 0.009364032
-0.030264985 0.123788625 -0.1646134 -0.29859692 -0.12579928 -0.15093082 -0.10009638 -0.0029846784
0.1276177 -0.07003713 -0.18873902 -0.22301805 -0.13679056 0.26357317 -0.011563211 0.034365024
-0.0054607494 0.057023246 0.1268996 0.056871977 0.09284128 0.12996061 0.0736989 0.001889156
0.15489325 -0.11160427 0.18642315 0.13782068 -0.22264299 0.043528408 -0.1991875 -0.037218697
-0.13782988 0.044511467 0.078299284 0.08360071 -0.11078943 -0.12430946 -0.14694555 -0.026851676
-0.11106389 0.008400082 0.019765137 -0.13734117 -0.04600635 -0.028849214 -0.0028657257 0.020676978
-0.08705643 0.0344752 0.1318671 -0.12513967 0.101225495 0.07425523 0.0049578925 0.11429038
0.18973464 0.048715983 0.05030625 0.082488336 0.119580485 0.14087899 0.00990816 -0.09026307
0.109475374 0.22446728 0.1848762 0.14584477 0.07734167 0.15054995 0.015770286 0.10224934
-0.09905574 -0.19370955 -0.09667297 -0.1226806 -0.006930731 0.04528539 0.10052031 -0.032717373
0.06870517 0.08906331 -0.056068912 0.004246134 -0.13341646 -0.18837652 -0.14369889 0.009060814
0.07818752 -0.14443217 0.16115274 -0.17652157 -0.14321153 -0.10716607 -0.20371704 -0.13996379
0.083281666 -0.22700346 0.012579166 0.068329595 -0.089522205 0.14421824 0.12676682 0.0722807
00000000: 34c4 393e 5081 58bd 261d 44bd fee3 bbbc
00000010: 5d20 333e 134b a03b 1625 69be 0674 fa3d
00000020: 520e 2bbd 03cf b0bd e568 72be 8f60 01be
00000030: 99a3 19be f086 b03d f1b8 65be 3904 a13d
00000040: b80d 73be 865f 9e3d 5043 4c3e 0014 b73c
00000050: 5859 aebc f8f4 2cbd f26d 143d 83a4 c7bd
00000060: b551 263d 497b 4f3e 7bda 9c3b 43e2 5fbb
00000070: afe0 513e ea32 f23c 00ac 6dbe 28b7 bdbd
00000080: 0a64 48be 8492 5b3e 176e 73bd 6fad be3d
00000090: a47d c0bd 6d0c e9bc f750 1f3e 0908 b7bd
000000a0: bb13 44be fc79 e23d 4508 a0bd e24b 193d
000000b0: 2084 253e 1677 9a3d 81f8 863c c5db d8bd
000000c0: 0754 8d3c 8d98 dc3d da48 f0bd b65c 083e
000000d0: 242a d5bd 1ba6 7cbd ab3b edbd ac54 aebd
000000e0: bc08 eb3d cdf6 06bd 2b35 0bbe fcb6 cfbd
000000f0: 6acb 06bd 869e babb c5a3 89bd a020 3ebe
00000100: be74 053e e4af 5e3d e9c5 9b3d dae7 b63d
00000110: b47e 20be 5cfd b83d 748e 10be 28ba 583e
00000120: 1c48 32be ad84 233e f24b bf3d 77b1 1bbe
00000130: a011 0abd 3f8f c53d b33e 53be 90e2 b1bc
00000140: 2579 4d3e 6037 04bd 79e1 29be b830 083e
00000150: d389 3d3c 912c 37be b10b 24bb 6756 23be
00000160: 078e 3a3e 54f7 453e 28de 233e f0a4 273e
00000170: 56dc 1bbd b108 3b3e c01c b73d 2442 4a3c
00000180: 7f54 873d 9bf5 123e 49fd f7bd 603d 18be
00000190: 54df 813d ae45 853d 6ac2 30bd baa5 933d
000001a0: e14e 2cbe dc2c a4bd 6abd 1ebe bfc9 a53d
000001b0: 90ce 34be 248c 203d fc2a cb3c f6f9 cb3d
000001c0: 89ce 123e 9492 d93d 239a 6bbd 1db2 99bb
000001d0: 43f2 853d 9d9a 9bbd 2d2a ca3c 552b adbd
000001e0: b101 3ebd 8f8a 5f3d 5b9f 713e 5c64 293d
000001f0: df6a 5abe 3ea5 4bbe eda5 0dbd f7a5 dabd
00000200: a8f2 ae3d 8e21 c63c f43b 1bbe ecef f73d
00000210: 911b 8bbd 7b78 2ebe cc81 36be d998 26bb
00000220: 29b1 263e ab4f 2abe 780a b43c c659 c83c
00000230: 837e 33be b0c5 cabd 1cb6 b6bd 6c7c 153d
00000240: 2026 703e b8f6 563d 2530 8e3d 4ffe 253e
00000250: fde5 dabd cfcf ffbc d284 923d 996b 193c
00000260: 46ee f7bc e484 fd3d 6a90 28be b2e1 98be
00000270: 87d1 00be 9c8d 1abe 55ff ccbd 989a 43bb
00000280: 37ae 023e a06f 8fbd cd44 41be d85e 64be
00000290: d312 0cbe 10f3 863e 9f73 3dbc 57c2 0c3d
000002a0: 16f0 b2bb 3591 693d f8f1 013e 97f2 683d
000002b0: 9223 be3d 6514 053e 73ef 963d 8e9d f73a
000002c0: 569c 1e3e c890 e4bd b6e5 3e3e dd20 0d3e
000002d0: 86fc 63be d84a 323d cff7 4bbe a272 18bd
000002e0: 4723 0dbe a851 363d 605b a03d d936 ab3d
000002f0: 92e5 e2bd f595 febd e578 16be 0cf8 dbbc
00000300: 7775 e3bd 7fa0 093c 7fea a13c 2aa3 0cbe
00000310: 2871 3cbd 3055 ecbc e6ce 3bbb c462 a93c
00000320: a44a b2bd de35 0d3d 2b08 073e 9d24 00be
00000330: 504f cf3d 2013 983d d175 a23b 1311 ea3d
00000340: cc49 423e 698a 473d ed0d 4e3d a5ef a83d
00000350: 9de6 f43d 9542 103e d655 223c d8db b8bd
00000360: a034 e03d c0da 653e 3050 3d3e 5558 153e
00000370: 4f65 9e3d c429 1a3e b030 813c 1a68 d13d
00000380: bcdd cabd cc5b 46be 7afc c5bd f73f fbbd
00000390: 2f1b e3bb 2c7d 393d 98dd cd3d a702 06bd
000003a0: 4cb5 8c3d d366 b63d 84a8 65bd 2723 8b3b
000003b0: 539e 08be c6e5 40be cd25 13be cf73 143c
000003c0: c720 a03d 07e6 13be 3905 253e 12c2 34be
000003d0: 0ba6 12be e279 dbbd 339b 50be ab52 0fbe
000003e0: 948f aa3d 9873 68be d918 4e3c 63f0 8b3d
000003f0: 6b57 b7bd f2ad 133e 29cf 013e e707 943d

conv1.bias f4 [32]
0.07581774 0.013708341 0.1729972 -0.16193533 -0.054318685 0.16223297 -0.053336885 -0.15577395
-0.14875695 0.049504932 0.10475507 0.12747741 0.024329903 0.018484302 0.13391161 0.08742434
-0.0033373204 0.040133037 0.0022306931 -0.10030555 0.1028674 -0.023345781 -0.09540586 0.12383291
-0.026929291 -0.14372621 -0.014853278 0.047333334 0.18672723 0.040674094 -0.07928247 -0.00803444
00000000: 5546 9b3d f398 603c 2e26 313e 60d2 25be
00000010: 457d 5ebd 6620 263e c777 5abd 3583 1fbe
00000020: be53 18be afc5 4a3d d389 d63d 7089 023e
00000030: 814f c73c 646c 973c 2020 093e 880b b33d
00000040: f2b6 5abb 8a62 243d d230 123b ff6c cdbd
00000050: 25ac d23d a73f bfbc 2664 c3bd 1c9c fd3d
00000060: d19a dcbc f72c 13be 2a5b 73bc 99e0 413d
00000070: 6c35 3f3e e199 263d d95e a2bd e2a2 03bc

conv2.weight f4 [64, 32, 3, 3]
0.030524353 0.006949159 0.021918187 0.033812363 -0.03628933 -0.017999707 -0.078369424 -0.02882867
0.009506422 -0.009098526 -0.043649565 -0.0419507 -0.018210206 -0.065074846 -0.010625294 -0.11307937
-0.078432724 0.033079743 -0.034674622 -0.038206376 0.007472537 -0.034506228 0.013211865 0.036297847
-0.067684986 -0.08607207 0.035155468 -0.027575007 0.0041908147 -0.0063023726 -0.08520107 -0.026914883
0.083303325 -0.053064723 -0.04710288 0.3764548 -0.1221592 -0.27582148 -0.11215373 -0.05011381
0.022452688 -0.06717692 0.030164992 -0.20716842 0.33185926 -0.015979087 -0.0064055244 -0.05859095
0.050118413 -0.06640649 -0.009551289 -0.024326902 -0.03474409 -0.07727158 0.0578616 0.06577972
0.074588686 0.07433787 0.046532348 0.11277934 -0.05896793 -0.075733736 0.111388884 -0.17838755
-0.077076554 -0.060176373 -0.16765288 -0.13742353 -8.6515116e-05 -0.101525225 -0.059109677 0.14592035
-0.05083133 -0.037381686 0.08015554 0.04447823 -0.043251276 -0.0036820567 -0.06767884 -0.013757097
0.14347057 -0.029592339 -0.018700875 0.03807806 0.0035860117 0.025516355 0.02250585 -0.0318269
-0.07921822 0.027245235 -0.022548135 -0.05667237 0.038221516 -0.010129216 0.010818633 0.019325955
-0.10133261 -0.10695978 0.039995443 0.057579476 0.047855 0.035814736 0.044692706 0.013368869
0.07411555 0.02566535 -0.013877088 0.046899065 0.15947223 0.008279616 -0.102274604 -0.058618095
0.010754376 -0.07347288 -0.03112448 -0.175892 -0.09093595 -0.07741999 0.010901667 0.061563417
0.0055123176 -0.05735809 -0.0012372874 -0.06789007 -0.14645217 0.1871705 0.045450196 -0.03618769
0.03993399 -0.009477564 -0.017303083 -0.017331857 -0.0034862866 -0.053797934 0.040499173 0.06327859
0.073233694 0.061816163 0.03532627 0.023591489 -0.061685123 0.020930624 -0.06182296 0.014521671
-0.098749645 -0.0879999 -0.027251605 -0.07927888 -0.05606435 -0.0736682 0.04265841 -0.083719715
-0.06284148 0.055227753 0.02229407 0.04882713 -0.009143666 0.03786793 -0.015756939 -0.018509474
-0.021885242 0.05698063 -0.0087323245 0.020687629 0.03845858 0.029145801 0.09366447 -0.013292877
0.14444146 0.056378037 -0.06850343 0.19564672 0.18618146 0.17385776 0.034630965 -0.15264921
-0.027478112 0.3313734 0.21300013 -0.22965637 0.00917307 -0.017081555 -0.04396475 0.008351756
-0.0004951064 -0.01017052 -0.021988228 -0.07073749 -0.08665543 0.1782151 0.12348474 0.03713817
0.11338264 0.10321165 0.04585746 0.10863031 0.15607674 0.07009847 -0.08551169 -0.059864473
-0.13314846 0.06475174 0.10301607 0.10096483 0.012560676 0.014226611 -0.18910314 0.038504418
0.024963634 0.06895363 -0.026604326 -0.012304492 -0.03455172 -0.09642996 -0.11985477 -0.022788238
0.23570834 -0.031890098 -0.15174587 0.04997406 -0.21334058 0.035948053 0.09468746 -0.11097858
0.3194831 -0.0603144 -0.084722884 -0.10098658 -0.12013366 -0.1144067 -0.023844987 -0.05750175
-0.24279688 0.36173967 -0.0075579877 0.05319454 0.12442312 0.103568055 0.08364 0.23285775
-0.031316705 0.16924475 0.1593215 0.054939628 0.0056241946 -0.014603746 0.106923744 0.117963836
0.029601112 -0.07827724 -0.10880667 -0.1316087 0.018546833 -0.08802434 -0.06414862 -0.07612868
00000000: 350e fa3c c5b5 e33b c58d b33c d57e 0a3d
00000010: 1fa4 14bd 1f74 93bc 2680 a0bd 1a2a ecbc
00000020: d3c0 1b3c fc11 15bc e3c9 32bd 7fd4 2bbd
00000030: 922d 95bc f645 85bd b715 2ebc 2896 e7bd
00000040: 56a1 a0bd a07e 073d fa06 0ebd 4a7e 1cbd
00000050: 2fdc f43b 6756 0dbd 9476 583c 0dad 143d
00000060: 6d9e 8abd 8e46 b0bd 2eff 0f3d fbe4 e1bc
00000070: 1a53 893b 2284 cebb e67d aebd 9a7c dcbc
00000080: ef9a aa3d 655a 59bd f3ee 40bd afbe c03e
00000090: 9a2e fabd 7938 8dbe dbb0 e5bd 2344 4dbd
000000a0: b3ee b73c 0e94 89bd 931c f73c f523 54be
000000b0: 75e9 a93e 93e6 82bc 6fe5 d1bb 10fd 6fbd
000000c0: f748 4d3d 2000 88bd 027d 1cbc 3649 c7bc
000000d0: d24f 0ebd 9040 9ebd 4900 6d3d 85b7 863d
000000e0: f4c1 983d 743e 983d b498 3e3d dbf8 e63d
000000f0: 5b88 71bd 4a1a 9bbd db1f e43d 3aab 36be
00000100: 50da 9dbd 807b 76bd 32ad 2bbe c1b8 0cbe
00000110: 736f b5b8 75ec cfbd fd1c 72bd 256c 153e
00000120: 8334 50bd 8a1d 19bd 9628 a43d ce2e 363d
00000130: 4028 31bd a94e 71bb 349b 8abd 7265 61bc
00000140: f3e9 123e a26b f2bc 9432 99bc bdf7 1b3d
00000150: 4b03 6b3b ad07 d13c 305e b83c ec5c 02bd
00000160: 2a3d a2bd 6631 df3c deb6 b8bc 4921 68bd
00000170: 2a8e 1c3d 03f5 25bc a340 313c 7751 9e3c
00000180: 7987 cfbd bb0d dbbd 43d2 233d 75d8 6b3d
00000190: 9b03 443d 79b2 123d b30f 373d 1a09 5b3c
000001a0: e5c9 973d 2440 d23c ba5c 63bc 3c19 403d
000001b0: b04c 233e 3aa7 073c 5975 d1bd 8719 70bd
000001c0: 1f33 303c f378 96bd c4f8 febc 081d 34be
000001d0: a13c babd 5f8e 9ebd e89c 323c ec29 7c3d
000001e0: aca0 b43b 51f0 6abd 7a2c a2ba f309 8bbd
000001f0: 8ff7 15be a0a9 3f3e fc29 3a3d 8b39 14bd
00000200: d391 233d c947 1bbc 32bf 8dbc 8afb 8dbc
00000210: 2f7a 64bb 395b 5cbd 76e2 253d 3598 813d
00000220: 8cfb 953d f232 7d3d 47b2 103d f042 c13c
00000230: 8aa9 7cbd b376 ab3c 123a 7dbd 4eec 6d3c
00000240: 413d cabd 4b39 b4bd c23e dfbc f75c a2bd
00000250: bba3 65bd 5adf 96bd 96ba 2e3d 3e75 abbd
00000260: 09b3 80bd 7f36 623d 0ea2 b63c f5fe 473d
00000270: 51cf 15bc 671b 1b3d b214 81bc 2ea1 97bc
00000280: ae48 b3bc 8564 693d 0612 0fbc 1a79 a93c
00000290: be86 1d3d 2dc3 ee3c 28d3 bf3d 5eca 59bc
000002a0: 76e8 133e a8ec 663d 874b 8cbd 9d57 483e
000002b0: 5aa6 3e3e c507 323e 33d9 0d3d 1350 1cbe
000002c0: c719 e1bc c6a9 a93e b51c 5a3e 0a2b 6bbe
000002d0: a54a 163c 9eee 8bbc 6214 34bd ced5 083c
000002e0: 07ca 01ba 41a2 26bc a820 b4bc d1de 90bd
000002f0: 6778 b1bd 057e 363e 91e5 fc3d 321e 183d
00000300: 2835 e83d a160 d33d 08d5 3b3d 9179 de3d
00000310: 95d2 1f3e c98f 8f3d c120 afbd 7334 75bd
00000320: 1258 08be 8f9c 843d 17fa d23d a6c6 ce3d
00000330: 4bcb 4d3c bb16 693c 41a4 41be cfb6 1d3d
00000340: 8980 cc3c 9037 8d3d 51f1 d9bc c898 49bc
00000350: 1b86 0dbd 127d c5bd 6b76 f5bd 66ae babc
00000360: 875d 713e 319f 02bd 4563 1bbe 9ab1 4c3d
00000370: f475 5abe 443e 133d 80eb c13d bd48 e3bd
00000380: 4a93 a33e 3b0c 77bd 3183 adbd 0dd2 cebd
00000390: a308 f6bd 0f4e eabd 9056 c3bc f486 6bbd
000003a0: bf9f 78be f135 b93e ffa8 f7bb 85e2 593d
000003b0: 8cd1 fe3d 7d1b d43d 734b ab3d 4372 6e3e
000003c0: f245 00bd 7f4e 2d3e 2d25 233e 6008 613d
000003d0: 2a4b b83b 8d44 6fbc d6fa da3d 0697 f13d
000003e0: 087e f23c d14f a0bd 08d6 debd 6ec4 06be
000003f0: 87ef 973c 1b46 b4bd 5a60 83bd 5ae9 9bbd

conv2.bias f4 [64]
0.04658007 -0.049928334 -0.07552628 0.005047212 0.0934102 0.07617005 -0.09732845 0.03730878
0.06265671 -0.019561077 -0.07382245 0.029483508 0.037297223 0.039593093 -0.04862357 0.06760546
-0.060384642 -0.039991938 -0.002783735 0.0050265337 -0.041847467 0.058347404 -0.07036845 0.021290658
0.002551166 -0.035489853 0.017093064 -0.0785771 -0.101536624 0.07225814 0.07514838 -0.08758337
-0.03312505 0.05199393 0.040439826 0.01739478 -0.076222695 -0.029013282 -0.05761781 -0.0176797
-0.061386652 -0.025737837 -0.042096503 -0.011898129 -0.0357163 -0.05892623 -0.08051507 0.022259183
-0.13950038 -0.093339816 0.061936405 0.08570466 -0.10212923 0.09595512 -0.09084207 -0.040820397
0.08822263 -0.02678806 0.017779361 -0.022242766 -0.029925162 0.088339545 -0.045118995 -0.03822264
00000000: beca 3e3d a781 4cbd 86ad 9abd 1563 a53b
00000010: d94d bf3d 0bff 9b3d 2354 c7bd 17d1 183d
00000020: 2952 803d 8d3e a0bc 3a30 97bd 6687 f13c
00000030: f9c4 183d 5e2c 223d 8229 47bd bb74 8a3d
00000040: e355 77bd 96ce 23bd 536f 36bb 9fb5 a43b
00000050: 4068 2bbd b0fd 6e3d 551d 90bd bf69 ae3c
00000060: 7731 273b cf5d 11bd c106 8c3c 08ed a0bd
00000070: 6ff2 cfbd 13fc 933d 65e7 993d e95e b3bd
00000080: 22ae 07bd 96f7 543d 3ba4 253d 7f7f 8e3c
00000090: a51a 9cbd 43ad edbc a700 6cbd 05d5 90bc
000000a0: 9270 7bbd 28d8 d2bc 626d 2cbd 5ff0 42bc
000000b0: 414b 12bd a15c 71bd 16e5 a4bd e458 b63c
000000c0: 30d9 0ebe f228 bfbd 07b1 7d3d ed85 af3d
000000d0: 2129 d1bd 1e84 c43d 680b babd 4a33 27bd
000000e0: 11ae b43d a272 dbbc 06a6 913c 7636 b6bc
000000f0: 9d25 f5bc 5deb b43d b2ce 38bd 588f 1cbd

conv3.weight f4 [128, 64, 3, 3]
-0.12517272 -0.062148497 0.06835926 -0.16218084 -0.17974232 -0.15376756 -0.1739299 -0.043823577
-0.040164605 0.053516284 -0.041537914 -0.0071604913 0.14935035 0.11152504 0.11255844 0.14583668
0.008548596 0.19102249 -0.33104005 -0.12747242 -0.38868695 -0.19219552 -0.24785845 -0.33429357
-0.09408564 -0.10526984 -0.1590552 -0.14503007 -0.16729194 -0.012994889 0.1977491 0.18628983
0.19582345 0.3052488 0.01752326 0.14096443 -0.090667665 -0.051919065 -0.0912643 -0.08330336
-0.005402832 -0.06177741 -0.08005372 0.01681822 -0.041162334 0.031090092 0.032909352 -0.06558286
-0.00622271 0.00930731 -0.07546199 -0.02754641 0.009483465 -0.09382201 -0.140001 -0.17403853
-0.1768157 0.16656318 0.16470522 0.1758251 -0.12475289 -0.24799213 -0.25017428 0.099751286
0.2225536 0.051873304 -0.033947673 0.23079853 0.025979241 -0.044021063 0.24961942 -0.01139461
-0.098147824 -0.0908156 -0.12822028 -0.07497699 -0.0951968 -0.03999675 -0.062272817 -0.06956828
-0.040742446 0.003223578 0.008766268 0.008134586 -0.18048695 -0.15586008 -0.1995385 0.0979571
0.24299437 0.19610575 -0.18790685 -0.17406464 -0.3773522 0.07472933 0.06518731 0.057006057
-0.31035957 -0.32879317 -0.37574983 0.07899598 0.015201602 -0.07047682 0.0379799 0.0009443138
-0.06821869 -0.04636946 -0.050117906 -0.09862461 0.120521285 0.12048979 0.10766238 -0.008947688
-0.009192801 0.025538843 0.12991112 0.10731859 0.08637005 -0.27146938 -0.28712648 -0.16440503
-0.19957425 -0.18979034 -0.13399719 -0.13091846 -0.1859133 -0.021312675 0.02778256 0.090616256
-0.23904975 -0.068183616 -0.028808784 -0.06493148 -0.0037008242 0.053057227 0.0015991853 -0.07755298
-0.14811906 0.005135093 -0.06220539 -0.0060216724 0.27625218 -0.08136217 -0.082153924 0.13730164
-0.20860204 -0.2707002 -0.15001069 0.11231765 0.12511167 0.15531918 0.036487274 -0.11860687
-0.0021830038 -0.15272461 -0.18599373 -0.18838352 0.13928048 0.12125476 0.16209707 -0.12607792
-0.27467299 -0.39247972 -0.1574214 -0.08542635 -0.080660544 -0.2958641 -0.21097195 -0.16591993
-0.2042831 -0.24552698 -0.13652654 0.043943755 -0.054304365 0.026512783 0.07487266 0.07749067
0.09424667 0.026326725 -0.15440196 -0.25254738 -0.116974406 -0.042389933 -0.12461942 0.089684404
0.11942594 0.043476198 -0.1712359 -0.041618954 -0.1392544 -0.051271852 0.13897268 -0.0056383302
-0.12618248 0.11969405 -0.066235214 0.0017287432 0.22105137 0.09760807 0.02775122 -0.034371212
0.036845423 0.13521454 0.15653358 0.08862542 0.02063688 -0.09162855 -0.27069807 0.09223973
-0.021807885 -0.011764843 0.06262326 0.017693255 0.04445414 -0.020309256 -0.07115026 -0.13861889
0.058244992 0.09180701 0.04549302 -0.08205417 0.032389965 0.012033895 0.006409337 0.015965523
0.024885044 -0.018700927 0.020070603 -0.08579096 0.13353956 0.16126904 0.11170505 -0.07882954
-0.031934116 -0.105233684 0.008245786 -0.011226649 0.004092609 0.1207827 0.19433275 0.16705488
0.009257936 -0.08009689 -0.11624713 -0.211688 -0.24558933 -0.18048337 0.08695655 0.09316821
0.17932442 -0.111438096 -0.2210811 -0.16312993 -0.26328516 -0.13856938 -0.3465251 -0.3584089
00000000: 472d 00be 6c8f 7ebd f1ff 8b3d bc12 26be
00000010: 5f0e 38be 3e75 1dbe ae1a 32be 5a80 33bd
00000020: a483 24bd e433 5b3d a923 2abd 8ea2 eabb
00000030: 4cef 183e 3d67 e43d 0a85 e63d 3656 153e
00000040: 690f 0c3c 669b 433e 157e a9be 2188 02be
00000050: fa01 c7be e7ce 44be 9bce 7dbe 8728 abbe
00000060: f9af c0bd b797 d7bd 5edf 22be c382 14be
00000070: 944e 2bbe 84e8 54bc bd7e 4a3e c3c2 3e3e
00000080: f185 483e 9249 9c3e f18c 8f3c fb58 103e
00000090: f8af b9bd 16a9 54bd c7e8 babd f49a aabd
000000a0: 3d0a b1bb 4f0a 7dbd 34f3 a3bd 5dc6 893c
000000b0: d699 28bd a6b0 fe3c f5cb 063d 4e50 86bd
000000c0: e0e7 cbbb b07d 183c d18b 9abd 02a9 e1bc
000000d0: 8960 1b3c c125 c0bd 6c5c 0fbe 2837 32be
000000e0: 2d0f 35be 8a8f 2a3e 7ca8 283e 7f0b 343e
000000f0: 717e ffbd a6f1 7dbe d816 80be 674a cc3d
00000100: 17e5 633e 1a79 543d b70c 0bbd 7356 6c3e
00000110: 6bd2 d43c 6e4f 34bd 3c9c 7f3e 75b0 3abc
00000120: ba01 c9bd 87fd b9bd 2d4c 03be 898d 99bd
00000130: 8af6 c2bd a2d3 23bd c811 7fbd d079 8ebd
00000140: 8de1 26bd aa42 533b 65a0 0f3c ed46 053c
00000150: 92d1 38be c999 1fbe d253 4cbe bb9d c83d
00000160: 84d3 783e f2cf 483e a76a 40be 003e 32be
00000170: 4f34 c1be b10b 993d ed80 853d 2f7f 693d
00000180: 73e7 9ebe 9457 a8be 4862 c0be a5c8 a13d
00000190: 2410 793c 2756 90bd d090 1b3d d48b 773a
000001a0: 3eb6 8bbd e7ed 3dbd 6f48 4dbd b3fb c9bd
000001b0: ddd3 f63d 5ac3 f63d 187e dc3d 5399 12bc
000001c0: 679d 16bc d636 d13c 6c07 053e d9c9 db3d
000001d0: c8e2 b03d 09fe 8abe 3e02 93be cb59 28be
000001e0: 315d 4cbe 6658 42be 8f36 09be 7d0f 06be
000001f0: 0e60 3ebe eb97 aebc 4098 e33c 0495 b93d
00000200: 75c9 74be daa3 8bbd 6600 ecbc ccfa 84bd
00000210: 8789 72bb 8952 593d c19b d13a 19d4 9ebd
00000220: 86ac 17be 4844 a83b 14cb 7ebd 7351 c5bb
00000230: ed70 8d3e 36a1 a6bd 5140 a8bd cd98 0c3e
00000240: c69b 55be 3799 8abe 679c 19be cc06 e63d
00000250: 461d 003e fe0b 1f3e ae73 153d 29e8 f2bd
00000260: ba10 0fbb d763 1cbe 2475 3ebe 9ce7 40be
00000270: 8b9f 0e3e 6a54 f83d c6fc 253e 921a 01be
00000280: f0a1 8cbe 1af3 c8be 1333 21be 03f4 aebd
00000290: 5b31 a5bd 807b 97be 0809 58be eae6 29be
000002a0: 972f 51be 6d6b 7bbe 9dcd 0bbe 5efe 333d
000002b0: 416e 5ebd 5631 d93c d656 993d 6eb3 9e3d
000002c0: 6604 c13d 25ab d73c 8c1b 1ebe e44d 81be
000002d0: 4790 efbd 11a1 2dbd 7738 ffbd 75ac b73d
000002e0: 9695 f43d 1914 323d 7758 2fbe a378 2abd
000002f0: b598 0ebe 6f02 52bd db4e 0e3e bec1 b8bb
00000300: fb35 01be 2722 f53d 54a6 87bd ff96 e23a
00000310: 4a5b 623e bde6 c73d 8756 e33c d4c8 0cbd
00000320: 3aeb 163d ae75 0a3e 574a 203e 3f81 b53d
00000330: ad0e a93c c0a7 bbbd f098 8abe 2fe8 bc3d
00000340: 73a6 b2bc 54c1 40bc a040 803d 72f1 903c
00000350: 8b15 363d 995f a6bc 3ab7 91bd 1cf2 0dbe
00000360: 4d92 6e3d 5005 bc3d e456 3a3d 040c a8bd
00000370: 57ab 043d d029 453c 6a05 d23b 21ca 823c
00000380: b8db cb3c b032 99bc 1b6b a43c 2cb3 afbd
00000390: 98be 083e b623 253e 9ec5 e43d 6271 a1bd
000003a0: 59cd 02bd c284 d7bd 5519 073c fbef 37bc
000003b0: 4b1b 863b ec5c f73d 2aff 463e 6f10 2b3e
000003c0: 99ae 173c d709 a4bd fa12 eebd bdc4 58be
000003d0: c57b 7bbe a2d0 38be 4716 b23d f9ce be3d
000003e0: d2a0 373e a839 e4bd 1563 62be 880b 27be
000003f0: 50cd 86be 22e5 0dbe bd6b b1be 5f81 b7be

conv3.bias f4 [128]
-0.08145204 0.0002273519 -0.0675842 -0.021095669 0.11927469 0.0035766682 0.059203826 0.010182989
-0.00951939 -0.080996454 0.06573439 0.07363025 -0.01754084 0.036628485 0.021808581 0.08520885
0.016467176 -0.031001782 -0.01321627 0.0825974 -0.06741344 -0.0002027964 -0.06466217 0.019911649
0.033165 0.032606535 0.113672815 -0.044340037 -0.061469078 -0.04398434 -0.010727758 -0.073896766
0.03723796 0.039356258 0.032195874 -0.013503556 -0.04584754 -0.0023578433 0.11086791 -0.013756252
0.07720197 -0.067532085 -0.056482784 0.009318494 -0.0111679025 -0.019922255 -0.04654099 -0.017650073
-0.05001098 0.053992074 -4.54185e-05 -0.023536017 -0.025120512 -0.013149251 -0.01581862 0.06916584
-0.07067089 -0.061980903 0.059494346 -0.05706118 -0.08855009 0.037752643 -0.013375338 0.026741263
-0.01721925 -0.015179333 -0.05167939 0.0478197 0.12150035 0.06478875 0.017868044 -0.0067148604
-0.012057755 0.09955001 0.14002682 -0.012672604 -0.059975974 0.027622122 -0.014050165 -0.011401684
-0.04722934 0.040919445 -0.013057535 -0.08201297 -0.013532213 0.056650147 -0.059101872 -0.07194822
-0.094561644 -0.07069818 0.06464982 -0.02577704 -0.075539894 -0.032754034 0.10080598 0.027248051
-0.061847135 -0.011503408 -0.015758341 0.04343824 -0.017527461 -0.08606003 -0.023065163 0.07729972
-0.037482966 0.0007364572 0.094972104 -0.022944294 0.09820787 -0.081881724 0.035167694 0.008161995
-0.022623861 0.019110205 -0.057697747 0.047098022 -0.0022744462 -0.0403233 -0.021495383 -0.011291402
0.05458125 0.08602764 -0.082657635 -0.01112082 0.05957971 -0.08497978 0.0030810847 -0.07167063
00000000: 54d0 a6bd 5065 6e39 9669 8abd d3d0 acbc
00000010: 4a46 f43d 8966 6a3b b67f 723d 8dd6 263c
00000020: 37f7 1bbc 78e1 a5bd c09f 863d 75cb 963d
00000030: cfb1 8fbc c007 163d e9a7 b23c fa81 ae3d
00000040: 2ce6 863c 73f7 fdbc 0e89 58bc d328 a93d
00000050: 0f10 8abd bea5 54b9 9a6d 84bd c11d a33c
00000060: 06d8 073d 6e8e 053d 4bcd e83d e69d 35bd
00000070: 00c7 7bbd ec28 34bd 7ac3 2fbc 3057 97bd
00000080: d586 183d 0734 213d d2df 033d 053e 5dbc
00000090: a1ca 3bbd 0c86 1abb b70e e33d e761 61bc
000000a0: 111c 9e3d 434e 8abd 7e5a 67bd 99ac 183c
000000b0: 94f9 36bc ff33 a3bc c4a1 3ebd e396 90bc
000000c0: 50d8 4cbd cb26 5d3d be7f 3eb8 9bce c0bc
000000d0: 88c9 cdbc f56f 57bc 0d96 81bc d2a6 8d3d
000000e0: e6bb 90bd b0df 7dbd 58b0 733d fcb8 69bd
000000f0: c059 b5bd 84a2 1a3d 3c24 5bbc 7e10 db3c
00000100: 620f 8dbc bdb2 78bc c5ad 53bd 97de 433d
00000110: 2dd5 f83d f7af 843d 0160 923c 5508 dcbb
00000120: e48d 45bc e0e0 cb3d 3163 0f3e c1a0 4fbc
00000130: 5ea9 75bd ca47 e23c aa32 66bc 21ce 3abc
00000140: 8d73 41bd 269b 273d 45ef 55bc 6af6 a7bd
00000150: 37b6 5dbc fc09 683d ce14 72bd 9759 93bd
00000160: 89a9 c1bd 35ca 90bd 2067 843d 5f2a d3bc
00000170: a9b4 9abd 1829 06bd 5e73 ce3d 4e37 df3c
00000180: 6c53 7dbd ca78 3cbc a317 81bc 4cec 313d
00000190: c095 8fbc 3e40 b0bd 27f3 bcbc 514f 9e3d
000001a0: bd87 19bd ce0e 413a bc80 c23d acf5 bbbc
000001b0: 3521 c93d 9bb1 a7bd 000c 103d e3b9 053c
000001c0: ad55 b9bc 018d 9c3c 7954 6cbd dbe9 403d
000001d0: e00e 15bb 0b2a 25bd 1617 b0bc 93ff 38bc
000001e0: 9790 5f3d 422f b03d 6848 a9bd 1a34 36bc
000001f0: db09 743d e109 aebd 06ec 493b 0dc8 92bd

fc.weight f4 [2, 128]
-0.32785308 0.10528264 0.4125244 0.17068341 -0.25675806 0.065807976 0.105142295 0.05410274
0.22003578 -0.26045293 0.06680424 0.10483412 -0.22557102 0.076873094 0.18143415 -0.3219624
0.099826865 -0.18830541 0.1401612 0.10798643 -0.34414732 0.09424641 -0.24229205 0.075621486
0.09675535 0.08919552 -0.3361319 -0.36127326 -0.30780908 -0.31310394 0.1798914 -0.41966364
0.05977476 0.09119564 0.0820855 0.19109839 -0.1563425 0.056857068 -0.28584328 0.21967036
-0.29914913 -0.33286172 -0.08339459 0.04439047 0.18982199 0.34420595 -0.43360445 0.29809642
-0.25787252 -0.23469627 0.104777366 0.3091977 -0.19224782 0.27201617 0.21980841 0.11137691
-0.06792497 0.44768128 0.07166962 -0.3581643 -0.40122542 0.13743845 0.27602363 0.08009418
0.17903326 0.19610673 -0.29787785 0.062104303 -0.24583416 0.10379262 0.06819732 0.22399199
0.24001455 -0.266627 -0.24877185 0.16686997 -0.38397798 0.048980545 0.17161776 0.31325528
-0.2660639 0.11426952 0.24913515 -0.26895034 0.18936948 0.0069224695 -0.05494495 -0.37154013
0.38093516 0.41833887 0.06786651 0.38421404 0.47273865 -0.40253064 -0.4157475 0.038534686
0.33014318 0.15435144 0.23488122 0.115122154 0.28581315 -0.38968638 0.2714626 0.083602816
-0.32971603 0.13019344 -0.3883829 0.3782934 -0.39017075 -0.31890056 0.09459593 0.08117082
-0.32022485 0.11143972 -0.13250875 0.11289454 0.1115265 -0.060555767 0.3250567 0.21880612
0.09933301 -0.28423074 -0.39583498 0.33101624 0.017670125 -0.38149193 0.0448365 -0.3347341
0.27726015 -0.033975393 -0.3627826 -0.26740727 0.1925737 -0.20445535 -0.060499385 -0.09259572
-0.3368083 0.32661244 -0.106720954 -0.0585011 0.20302656 -0.10816334 -0.123855256 0.28514984
-0.14459072 0.30012277 -0.2914188 -0.061380446 0.41048318 -0.045065414 0.3249151 -0.1190231
-0.03574758 -0.05016887 0.3264785 0.34251195 0.38638854 0.26360556 -0.29133892 0.33727953
-0.073633246 -0.06307309 -0.045512486 -0.22629371 0.1732768 -0.1619142 0.210624 -0.3358477
0.35493663 0.3745942 -0.046319004 -0.09656294 -0.2886337 -0.2272965 0.33363447 -0.29579028
0.37230688 0.25276875 -0.051353533 -0.29861274 0.26321346 -0.21281643 -0.29774028 -0.012838167
-0.0047446853 -0.38496956 -0.11570133 0.23439847 0.3106103 -0.08926195 -0.2013856 -0.08311363
-0.30866018 -0.28652382 0.300304 -0.08400668 0.18848515 -0.0412324 -0.08838957 -0.17191729
-0.17510068 0.2502811 0.21109325 -0.28892675 0.237489 -0.09285034 -0.30570078 -0.20611542
0.25429612 -0.016356966 -0.35933763 0.33374476 -0.28625387 -0.113760315 0.030421706 0.38078249
-0.44306803 -0.49777102 -0.10445672 -0.36652747 -0.3465863 0.4001265 0.33952823 -0.094950624
-0.18830706 -0.29722667 -0.27355328 -0.107703276 -0.28052336 0.37563893 -0.4243603 -0.06554244
0.23966104 -0.14223611 0.42443073 -0.2677073 0.33637306 0.4055639 -0.1121438 -0.054356176
0.36113358 -0.0158043 0.22315863 -0.07959833 -0.050403237 -0.006126253 -0.35136667 -0.25110787
-0.04834422 0.26226348 0.2591241 -0.20245025 -0.11824191 0.3021444 -0.10209842 0.38748735
00000000: 5cdc a7be 6d9e d73d 6636 d33e a2c7 2e3e
00000010: cb75 83be 55c6 863d d854 d73d d69a 5d3d
00000020: 0f51 613e 165a 85be a9d0 883d 45b3 d63d
00000030: 17fc 66be a46f 9d3d e0c9 393e 41d8 a4be
00000040: 0772 cc3d 22d3 40be 6b86 0f3e fd27 dd3d
00000050: 1434 b0be 4304 c13d 681b 78be 70df 9a3d
00000060: ab27 c63d 24ac b63d 7b19 acbe cff8 b8be
00000070: 2799 9dbe 294f a0be 7335 383e 27de d6be
00000080: 61d6 743d c8c4 ba3d 711c a83d 4caf 433e
00000090: 4018 20be f5e2 683d 0d5a 92be 44f1 603e
000000a0: 132a 99be da6c aabe c8ca aabd c8d2 353d
000000b0: b260 423e c33b b03e 6701 debe 18a0 983e
000000c0: de07 84be 3854 70be 8495 d63d 294f 9e3e
000000d0: 9ddc 44be b445 8b3e 7515 613e 9419 e43d
000000e0: 3f1c 8bbd 7b36 e53e 86c7 923d 5061 b7be
000000f0: 6b6d cdbe aabc 0c3e f852 8d3e 6b08 a43d
00000100: 7f54 373e 34d0 483e 7283 98be 1561 7e3d
00000110: f3bb 7bbe 3a91 d43d 09ab 8b3d 285e 653e
00000120: 60c6 753e 5683 88be 0cbe 7ebe f6df 2a3e
00000130: c398 c4be d39f 483d 91bc 2f3e ff62 a03e
00000140: 8739 88be 2306 ea3d 491d 7f3e dcb3 89be
00000150: 13ea 413e e2d5 e23b f50d 61bd 823a bebe
00000160: ef09 c33e 8330 d63e 99fd 8a3d b4b7 c43e
00000170: cd0a f23e 7f18 cebe dbdc d4be 8cd6 1d3d
00000180: 8708 a93e 4e0e 1e3e b484 703e 2ac5 eb3d
00000190: 1a56 923e f984 c7be 25fd 8a3e f437 ab3d
000001a0: 8ad0 a8be 6e51 053e 20da c6be acaf c13e
000001b0: 76c4 c7be ef46 a3be 83bb c13d e33c a63d
000001c0: 83f4 a3be 823a e43d 60b0 07be 4135 e73d
000001d0: 0168 e43d 5309 78bd d56d a63e b60e 603e
000001e0: 1b6f cb3d b186 91be e2aa cabe f67a a93e
000001f0: f0c0 903c e952 c3be 7aa6 373d 4562 abbe
00000200: 0bf5 8d3e c829 0bbd a4be b9be 9be9 88be
00000210: 0a32 453e be5c 51be 34ce 77bd d3a2 bdbd
00000220: 2372 acbe bf39 a73e 8490 dabd d99e 6fbd
00000230: 32e6 4f3e be84 ddbd d3a7 fdbd 29ff 913e
00000240: 970f 14be b1a9 993e d834 95be 106a 7bbd
00000250: da2a d23e 8396 38bd 465b a63e 62c2 f3bd
00000260: 0e6c 12bd df7d 4dbd 3128 a73e ba5d af3e
00000270: b8d4 c53e 4ff7 863e 602a 95be e7af ac3e
00000280: 07cd 96bd 772c 81bd 4d6b 3abd 8ab9 67be
00000290: 796f 313e d6cc 25be d1ad 573e 3bf4 abbe
000002a0: 41ba b53e d0ca bf3e ffb8 3dbd cac2 c5bd
000002b0: ccc7 93be 6ac0 68be 23d2 aa3e d371 97be
000002c0: 029f be3e e86a 813e 1558 52bd c5e3 98be
000002d0: eac3 863e 8dec 59be 6a71 98be 2d57 52bc
000002e0: 4e79 9bbb bb1a c5be d2f4 ecbd 2706 703e
000002f0: 5008 9f3e f8ce b6bd 0738 4ebe 7b37 aabd
00000300: b508 9ebe 40b3 92be 72c1 993e b20b acbd
00000310: 4002 413e 4ee3 28bd 9705 b5bd 160b 30be
00000320: 984d 33be d824 803e d428 583e 35ee 93be
00000330: 5130 733e 5228 bebd d084 9cbe ec0f 53be
00000340: 1a33 823e 0bff 85bc 1afb b7be 98e0 aa3e
00000350: de8f 92be 2bfb e8bd f136 f93c ecf5 c23e
00000360: d0d9 e2be d8db febe 68ed d5bd 7da9 bbbe
00000370: c273 b1be 61dd cc3e a5d6 ad3e 7975 c2bd
00000380: 91d3 40be 182e 98be 2d0f 8cbe 8993 dcbd
00000390: c2a0 8fbe bf53 c03e c145 d9be 1d3b 86bd
000003a0: b469 753e 58a6 11be fc4e d93e ee10 89be
000003b0: 1739 ac3e 12a6 cf3e a6ab e5bd 95a4 5ebd
000003c0: 80e6 b83e 0578 81bc b283 643e 7304 a3bd
000003d0: a073 4ebd bcbe c8bb 55e6 b3be 3691 80be
000003e0: 9704 46bd 6647 863e eaab 843e 1e4f 4fbe
000003f0: d128 f2bd acb2 9a3e fa18 d1bd be64 c63e

fc.bias f4 [2]
0.0027008336 -0.07583208
00000000: 7800 313b d94d 9bbd
